Architecture model: 
Model: "sequential"
_________________________________________________________________
 Layer (type)                Output Shape              Param #   
=================================================================
 conv2d (Conv2D)             (None, 28, 28, 32)        320       
                                                                 
 batch_normalization (BatchN  (None, 28, 28, 32)       128       
 ormalization)                                                   
                                                                 
 conv2d_1 (Conv2D)           (None, 28, 28, 32)        9248      
                                                                 
 batch_normalization_1 (Batc  (None, 28, 28, 32)       128       
 hNormalization)                                                 
                                                                 
 conv2d_2 (Conv2D)           (None, 14, 14, 32)        25632     
                                                                 
 batch_normalization_2 (Batc  (None, 14, 14, 32)       128       
 hNormalization)                                                 
                                                                 
 dropout (Dropout)           (None, 14, 14, 32)        0         
                                                                 
 conv2d_3 (Conv2D)           (None, 14, 14, 64)        18496     
                                                                 
 batch_normalization_3 (Batc  (None, 14, 14, 64)       256       
 hNormalization)                                                 
                                                                 
 conv2d_4 (Conv2D)           (None, 14, 14, 64)        36928     
                                                                 
 batch_normalization_4 (Batc  (None, 14, 14, 64)       256       
 hNormalization)                                                 
                                                                 
 conv2d_5 (Conv2D)           (None, 7, 7, 64)          102464    
                                                                 
 batch_normalization_5 (Batc  (None, 7, 7, 64)         256       
 hNormalization)                                                 
                                                                 
 dropout_1 (Dropout)         (None, 7, 7, 64)          0         
                                                                 
 flatten (Flatten)           (None, 3136)              0         
                                                                 
 dense (Dense)               (None, 64)                200768    
                                                                 
 batch_normalization_6 (Batc  (None, 64)               256       
 hNormalization)                                                 
                                                                 
 dropout_2 (Dropout)         (None, 64)                0         
                                                                 
 dense_1 (Dense)             (None, 9)                 585       
                                                                 
=================================================================
Total params: 395,849
Trainable params: 395,145
Non-trainable params: 704
_________________________________________________________________

Result training:
Accuracy: [… Loss: [… Validation accuracy): [… Validation loss): [… 