Architecture model: 
Model: "sequential"
_________________________________________________________________
 Layer (type)                Output Shape              Param #   
=================================================================
 conv2d (Conv2D)             (None, 28, 28, 32)        320       
                                                                 
 batch_normalization (BatchN  (None, 28, 28, 32)       128       
 ormalization)                                                   
                                                                 
 conv2d_1 (Conv2D)           (None, 28, 28, 32)        9248      
                                                                 
 batch_normalization_1 (Batc  (None, 28, 28, 32)       128       
 hNormalization)                                                 
                                                                 
 conv2d_2 (Conv2D)           (None, 14, 14, 32)        25632     
                                                                 
 batch_normalization_2 (Batc  (None, 14, 14, 32)       128       
 hNormalization)                                                 
                                                                 
 dropout (Dropout)           (None, 14, 14, 32)        0         
                                                                 
 flatten (Flatten)           (None, 6272)              0         
                                                                 
 dense (Dense)               (None, 64)                401472    
                                                                 
 batch_normalization_3 (Batc  (None, 64)               256       
 hNormalization)                                                 
                                                                 
 dropout_1 (Dropout)         (None, 64)                0         
                                                                 
 dense_1 (Dense)             (None, 2)                 130       
                                                                 
=================================================================
Total params: 437,442
Trainable params: 437,122
Non-trainable params: 320
_________________________________________________________________

Result training:
Accuracy: [… Loss: [… Validation accuracy): [… Validation loss): [… 